…
how_labels=True, simplify=True, single_cls=False, source=None, split=val, stream_buffer=False, task=detect, time=None, tracker=botsort.yaml, translate=0.1, val=True, verbose=True, vid_stride=1, visualize=False, warmup_bias_lr=0.1, warmup_epochs=3.0, warmup_momentum=0.8, weight_decay=0.0005, workers=4, workspace=None
[KDownloading https://ultralytics.com/assets/Arial.ttf to '/root/.config/Ultralytics/Arial.ttf': 100% ━━━━━━━━━━━━ 755.1KB 90.8MB/s 0.0s

                   from  n    params  module                                       arguments
  0                  -1  1       928  ultralytics.nn.modules.conv.Conv             [3, 32, 3, 2]
  1                  -1  1     18560  ultralytics.nn.modules.conv.Conv             [32, 64, 3, 2]
  2                  -1  1     29056  ultralytics.nn.modules.block.C2f             [64, 64, 1, True]
  3                  -1  1     73984  ultralytics.nn.modules.conv.Conv             [64, 128, 3, 2]
  4                  -1  2    197632  ultralytics.nn.modules.block.C2f             [128, 128, 2, True]
  5                  -1  1    295424  ultralytics.nn.modules.conv.Conv             [128, 256, 3, 2]
  6                  -1  2    788480  ultralytics.nn.modules.block.C2f             [256, 256, 2, True]
  7                  -1  1   1180672  ultralytics.nn.modules.conv.Conv             [256, 512, 3, 2]
  8                  -1  1   1838080  ultralytics.nn.modules.block.C2f             [512, 512, 1, True]
  9                  -1  1    656896  ultralytics.nn.modules.block.SPPF            [512, 512, 5]
 10                  -1  1         0  torch.nn.modules.upsampling.Upsample         [None, 2, 'nearest']
 11             [-1, 6]  1         0  ultralytics.nn.modules.conv.Concat           [1]
 12                  -1  1    591360  ultralytics.nn.modules.block.C2f             [768, 256, 1]
 13                  -1  1         0  torch.nn.modules.upsampling.Upsample         [None, 2, 'nearest']
 14             [-1, 4]  1         0  ultralytics.nn.modules.conv.Concat           [1]
 15                  -1  1    148224  ultralytics.nn.modules.block.C2f             [384, 128, 1]
 16                  -1  1         0  torch.nn.modules.upsampling.Upsample         [None, 2, 'nearest']
 17             [-1, 2]  1         0  ultralytics.nn.modules.conv.Concat           [1]
 18                  -1  1     37248  ultralytics.nn.modules.block.C2f             [192, 64, 1]
 19                  -1  1     36992  ultralytics.nn.modules.conv.Conv             [64, 64, 3, 2]
 20            [-1, 15]  1         0  ultralytics.nn.modules.conv.Concat           [1]
 21                  -1  1    123648  ultralytics.nn.modules.block.C2f             [192, 128, 1]
 22                  -1  1    147712  ultralytics.nn.modules.conv.Conv             [128, 128, 3, 2]
 23            [-1, 12]  1         0  ultralytics.nn.modules.conv.Concat           [1]
 24                  -1  1    493056  ultralytics.nn.modules.block.C2f             [384, 256, 1]
 25                  -1  1    590336  ultralytics.nn.modules.conv.Conv             [256, 256, 3, 2]
 26             [-1, 9]  1         0  ultralytics.nn.modules.conv.Concat           [1]
 27                  -1  1   1969152  ultralytics.nn.modules.block.C2f             [768, 512, 1]
 28    [18, 21, 24, 27]  1   1420056  ultralytics.nn.modules.head.Detect           [2, 16, None, [64, 128, 256, 512]]
YOLOv8s_p2 summary: 161 layers, 10,637,496 parameters, 10,637,480 gradients, 37.0 GFLOPs

Transferred 437/437 items from pretrained weights
Freezing layer 'model.28.dfl.conv.weight'
[34m[1mAMP: [0mrunning Automatic Mixed Precision (AMP) checks...
[KDownloading https://github.com/ultralytics/assets/releases/download/v8.4.0/yolo26n.pt to 'yolo26n.pt': 100% ━━━━━━━━━━━━ 5.3MB 260.9MB/s 0.0s
…
